…
xPooling2D(pool_size=(2,2)))\r\n","\r\n","model.add(Flatten())\r\n","\r\n","model.add(Dense(128))\r\n","model.add(Activation('relu'))\r\n","model.add(Dropout(0.2))\r\n","\r\n","model.add(Dense(10))\r\n","model.add(Activation('softmax'))\r\n","\r\n","model.summary()"],"execution_count":18,"outputs":[{"output_type":"stream","text":["Model: \"sequential_1\"\n","_________________________________________________________________\n","Layer (type)                 Output Shape              Param #   \n","=================================================================\n","conv2d_2 (Conv2D)            (None, 98, 98, 64)        1792      \n","_________________________________________________________________\n","max_pooling2d_2 (MaxPooling2 (None, 49, 49, 64)        0         \n","_________________________________________________________________\n","conv2d_3 (Conv2D)            (None, 47, 47, 32)        18464     \n","_________________________________________________________________\n","activation_3 (Activation)    (None, 47, 47, 32)        0         \n","_________________________________________________________________\n","max_pooling2d_3 (MaxPooling2 (None, 23, 23, 32)        0         \n","_________________________________________________________________\n","flatten_1 (Flatten)          (None, 16928)             0         \n","_________________________________________________________________\n","dense_2 (Dense)              (None, 128)               2166912   \n","_________________________________________________________________\n","activation_4 (Activation)    (None, 128)               0         \n","_________________________________________________________________\n","dropout_1 (Dropout)          (None, 128)               0         \n","_________________________________________________________________\n","dense_3 (Dense)              (None, 10)                1290      \n","_________________________________________________________________\n","activation_5 (Activation)    (None, 10)                0         \n","=================================================================\n","Total params: 2,188,458\n","Trainable params: 2,188,458\n","Non-trainable params: 0\n","_________________________________________________________________\n"],"name":"stdout"}]},{"cell_type":"code","metadata":{"id":"u-ySaY5qpypW","executionInfo":{"status":"ok","timestamp":1611754135347,"user_tz":-120,"elapsed":1028,
…
xPooling2D(pool_size=(2,2)))\r\n","\r\n","model.add(Flatten())\r\n","\r\n","model.add(Dense(512))\r\n","model.add(Activation('relu'))\r\n","model.add(Dropout(0.2))\r\n","\r\n","model.add(Dense(10))\r\n","model.add(Activation('softmax'))\r\n","\r\n","model.summary()"],"execution_count":97,"outputs":[{"output_type":"stream","text":["Model: \"sequential_9\"\n","_________________________________________________________________\n","Layer (type)                 Output Shape              Param #   \n","=================================================================\n","conv2d_18 (Conv2D)           (None, 98, 98, 64)        1792      \n","_________________________________________________________________\n","max_pooling2d_18 (MaxPooling (None, 49, 49, 64)        0         \n","_________________________________________________________________\n","conv2d_19 (Conv2D)           (None, 47, 47, 32)        18464     \n","_________________________________________________________________\n","activation_27 (Activation)   (None, 47, 47, 32)        0         \n","_________________________________________________________________\n","max_pooling2d_19 (MaxPooling (None, 23, 23, 32)        0         \n","_________________________________________________________________\n","flatten_9 (Flatten)          (None, 16928)             0         \n","_________________________________________________________________\n","dense_18 (Dense)             (None, 512)               8667648   \n","_________________________________________________________________\n","activation_28 (Activation)   (None, 512)               0         \n","_________________________________________________________________\n","dropout_9 (Dropout)          (None, 512)               0         \n","_________________________________________________________________\n","dense_19 (Dense)             (None, 10)                5130      \n","_________________________________________________________________\n","activation_29 (Activation)   (None, 10)                0         \n","=================================================================\n","Total params: 8,693,034\n","Trainable params: 8,693,034\n","Non-trainable params: 0\n","_________________________________________________________________\n"],"name":"stdout"}]},{"cell_type":"code","metadata":{"id":"XOVOlek7ILPF","executionInfo":{"status":"ok","timestamp":1611758311932,"user_tz":-120,"elapsed":601,"
…
ooling2D(pool_size=(2,2)))\r\n","\r\n","model.add(Flatten())\r\n","\r\n","model.add(Dense(512))\r\n","model.add(Activation('relu'))\r\n","model.add(Dropout(0.2))\r\n","\r\n","model.add(Dense(10))\r\n","model.add(Activation('softmax'))\r\n","\r\n","model.summary()"],"execution_count":143,"outputs":[{"output_type":"stream","text":["Model: \"sequential_14\"\n","_________________________________________________________________\n","Layer (type)                 Output Shape              Param #   \n","=================================================================\n","conv2d_28 (Conv2D)           (None, 98, 98, 64)        1792      \n","_________________________________________________________________\n","batch_normalization_8 (Batch (None, 98, 98, 64)        256       \n","_________________________________________________________________\n","max_pooling2d_28 (MaxPooling (None, 49, 49, 64)        0         \n","_________________________________________________________________\n","conv2d_29 (Conv2D)           (None, 47, 47, 32)        18464     \n","_________________________________________________________________\n","batch_normalization_9 (Batch (None, 47, 47, 32)        128       \n","_________________________________________________________________\n","activation_42 (Activation)   (None, 47, 47, 32)        0         \n","_________________________________________________________________\n","max_pooling2d_29 (MaxPooling (None, 23, 23, 32)        0         \n","_________________________________________________________________\n","flatten_14 (Flatten)         (None, 16928)             0         \n","_________________________________________________________________\n","dense_28 (Dense)             (None, 512)               8667648   \n","_________________________________________________________________\n","activation_43 (Activation)   (None, 512)               0         \n","_________________________________________________________________\n","dropout_14 (Dropout)         (None, 512)               0         \n","_________________________________________________________________\n","dense_29 (Dense)             (None, 10)                5130      \n","_________________________________________________________________\n","activation_44 (Activation)   (None, 10)                0         \n","=================================================================\n","Total params: 8,693,418\n","Trainable params: 8,693,226\n","Non-trainable params: 192\n","_________________________________________________________________\n"],"name":"stdout"}]},{"cell_type":"code","metadata":{"id":"9-iwFzSHIgzc","executionInfo":{"status":"ok","timestamp":1611760803667,"user_tz":-120,"elapsed":173
…
ivation='relu'))\r\n","\r\n","#Second Hidden Layer\r\n","model.add(Conv2D(32,(3,3)))\r\n","model.add(Activation('relu'))\r\n","\r\n","model.add(Flatten())\r\n","\r\n","\r\n","model.add(Dense(10))\r\n","model.add(Activation('softmax'))\r\n","\r\n","model.summary()"],"execution_count":150,"outputs":[{"output_type":"stream","text":["Model: \"sequential_15\"\n","_________________________________________________________________\n","Layer (type)                 Output Shape              Param #   \n","=================================================================\n","conv2d_30 (Conv2D)           (None, 98, 98, 64)        1792      \n","_________________________________________________________________\n","conv2d_31 (Conv2D)           (None, 96, 96, 32)        18464     \n","_________________________________________________________________\n","activation_45 (Activation)   (None, 96, 96, 32)        0         \n","_________________________________________________________________\n","flatten_15 (Flatten)         (None, 294912)            0         \n","_________________________________________________________________\n","dense_30 (Dense)             (None, 10)                2949130   \n","_________________________________________________________________\n","activation_46 (Activation)   (None, 10)                0         \n","=================================================================\n","Total params: 2,969,386\n","Trainable params: 2,969,386\n","Non-trainable params: 0\n","_________________________________________________________________\n"],"name":"stdout"}]},{"cell_type":"code","metadata":{"id":"blovjHiMcGyv","executionInfo":{"status":"ok","timestamp":1611761481291,"user_tz":-120,"elapsed":1071,
…
